assets/ai_model/ppo_anesthesia_model.tflite (tflite, 19948 bytes, 5 tensors)

sequential/dense_1/BiasAdd/ReadVariableOp f4 [64]
0	0xbc64f102	-0.013973476
1	0xbca289d5	-0.019841114
2	0xbc163f8b	-0.009170423
3	0x3bc19de6	0.0059087155
4	0x3c56aa22	0.013102086
5	0x3a475d97	0.00076051935
6	0xbca629bf	-0.020283578
7	0x3c61d412	0.013783472
8	0xbc369a75	-0.011145224
9	0xbc8fc90d	-0.017551923
10	0x3c770f44	0.015079323
11	0x3c8bb6d0	0.017054945
12	0xbc9ba6c7	-0.019000424
13	0xbc36f7f5	-0.011167516
14	0xbca1f527	-0.019770218
15	0x3c50b534	0.012738515
16	0xbc73502c	-0.014850657
17	0x3be1d355	0.006891648
18	0x3baeebdb	0.0053381748
19	0x3bba9bae	0.005694828
20	0xbbd165a2	-0.0063902894
21	0x3c28ea7c	0.010309812
22	0xbc5078e4	-0.012724135
23	0x3ca32459	0.019914793
24	0x3cb05f46	0.021529805
25	0x3cae0616	0.021243136
26	0xbc94c97a	-0.018162478
27	0x3c7c2e8f	0.01539196
28	0x3ca36411	0.019945176
29	0xbb637e7f	-0.0034712849
30	0x3c8fd906	0.01755954
31	0x3c9f6903	0.019459253
32	0x3c8b1bf9	0.016981112
33	0x3c7a9d32	0.015296267
34	0xbcacaf04	-0.021079548
35	0xbc7029d7	-0.014658413
36	0xbc9fe910	-0.019520313
37	0x3c815efa	0.015792359
38	0x3c520990	0.012819663
39	0x3c9306ed	0.017947638
40	0x3c5bb02d	0.013408703
41	0xbbccad12	-0.0062462175
42	0xbbd85bec	-0.006602755
43	0xbc8ad799	-0.016948508
44	0x3c5270e2	0.012844296
45	0xbc8d13d3	-0.017221367
46	0x3c9081d4	0.017640032
47	0xbc0b2353	-0.008492309
48	0x3b12fb0e	0.0022427472
49	0xbc553c30	-0.013014838
50	0x3c7ef6a9	0.015561738
51	0x3c354295	0.011063238
52	0xbbd51135	-0.0065022954
53	0x3ab3cf5e	0.0013718416
54	0xba35960b	-0.000692696
55	0xbc1a8d18	-0.009433053
56	0xbbae9c0c	-0.005328661
57	0x3beee4c6	0.0072904555
58	0x3c527bbe	0.012846885
59	0xbc131901	-0.008978129
60	0x3c8ae1aa	0.016953308
61	0x3ca56ca9	0.020193415
62	0xbc71a0d5	-0.014747818
63	0x3c8a3d52	0.016874943

sequential/dense/BiasAdd/ReadVariableOp f4 [64]
0	0x3c98f772	0.018672679
1	0x3b58eb7a	0.003309934
2	0x3ae45936	0.0017421606
3	0xbc481b39	-0.012213522
4	0x3c623709	0.013807067
5	0x3c26ac79	0.010172957
6	0x3af127e0	0.0018398724
7	0x3c881d58	0.016615555
8	0x3bfc71d6	0.007704
9	0xbc4ff4c5	-0.012692635
10	0xbc668fc9	-0.014072367
11	0xbc14acf9	-0.009074443
12	0xbca33e1c	-0.019927077
13	0x3c9cc5bb	0.019137254
14	0x3ca50e5a	0.020148445
15	0x3b665f0e	0.0035151872
16	0xbc9245a9	-0.017855482
17	0x3ca53f98	0.020171925
18	0x3bbb7ec1	0.0057218974
19	0x3c0f37b5	0.008741309
20	0xbb8683a9	-0.0041050506
21	0x3c744f62	0.014911504
22	0xb9d421c0	-0.00040460937
23	0xbc98f72c	-0.018672548
24	0x3c87b8b6	0.01656757
25	0xbbc33162	-0.0059568146
26	0x3c99ebef	0.01878926
27	0xbcaaf3d5	-0.020868221
28	0xbc80a122	-0.015701834
29	0x3c2a9ae8	0.010412909
30	0x3cb7335f	0.022363363
31	0xbad4dbd8	-0.0016239835
32	0x3c1568e0	0.009119242
33	0xbc8e0e9e	-0.017340954
34	0x3c574985	0.013140087
35	0xbc933b4e	-0.017972615
36	0xbc560d06	-0.0130646285
37	0x3c5e675a	0.013574446
38	0xbc913508	-0.017725483
39	0x3bf16c0a	0.0073676156
40	0xbcbbb105	-0.022911558
41	0x3b98c4e9	0.0046621454
42	0xbc8ea07d	-0.017410511
43	0xbc83ff1d	-0.016112858
44	0xbb0891e0	-0.0020838901
45	0x3cb79099	0.022407817
46	0xbca3fc5c	-0.020017795
47	0xbc9216e5	-0.017833183
48	0x3bc2a005	0.005939486
49	0x3a423e7c	0.00074098236
50	0xbbd3ad46	-0.006459865
51	0x3ca67a19	0.020321893
52	0x3c8108a5	0.015751192
53	0xbbf1fa47	-0.0073845717
54	0x3c8ee1e2	0.017441694
55	0x3c49bd71	0.012313233
56	0xbbc34839	-0.0059595373
57	0x3ca92263	0.02064628
58	0x3c8b8aff	0.017034052
59	0x3c9c6419	0.019090699
60	0xbc3ce208	-0.011528499
61	0xbc921540	-0.017832398
62	0x3cb4f459	0.02208917
63	0x3ab3b22d	0.0013709717

sequential/dense/MatMul1 f4 [64, 3]
0	0x3a8b4555	0.0010625521
1	0xbd93d3ec	-0.07218155
2	0xbe919598	-0.28434443
3	0x3db3f012	0.08786024
4	0xbe6cbadb	-0.23118155
5	0x3e87f7d4	0.26556265
6	0x3c90a32b	0.01765593
7	0xbe820eeb	-0.25402007
8	0xbec546f2	-0.3853069
9	0x3dd0ddc1	0.10198546
10	0x3e77f5fc	0.2421493
11	0x3cd2fc58	0.025755093
12	0xbc0aaa0a	-0.008463392
13	0x3dc9a650	0.09846175
14	0x3e005a87	0.12534533
15	0x3e079a90	0.13242555
16	0x3dda9bfb	0.10674282
17	0xbc6d9a0f	-0.014502062
18	0x3df65313	0.12027564
19	0xbc10f61a	-0.008847738
20	0xbcd4f799	-0.02599697
21	0xbe8d2b44	-0.27572072
22	0xbd2b7b0b	-0.04186539
23	0xbe4210f1	-0.18951775
24	0x3d8eeeca	0.06979139
25	0x3d9fa102	0.07794382
26	0x3cf454bf	0.029825566
27	0xbd3a77f9	-0.04552457
28	0x3d8904af	0.066903464
29	0x3c83e569	0.016100602
30	0xbe59a49c	-0.212542
31	0xbd0b7417	-0.03404626
32	0x3b8d9f0d	0.004321939
33	0xbe6448f0	-0.22293448
34	0x3e9666cb	0.293753
35	0x3d42e799	0.04758415
36	0xbdaca269	-0.08429415
37	0xbdbd2cd4	-0.09237066
38	0xbe62dff8	-0.2215575
39	0x3e0d3312	0.13789013
40	0x3da7ca1b	0.081928454
41	0x3df2c9e7	0.11854916
42	0x3e8c506d	0.2740511
43	0xbe65fee2	-0.22460511
44	0xbdeb7fae	-0.11498962
45	0xbe47c345	-0.19508083
46	0xbd36930a	-0.04457382
47	0xbd4bc1ef	-0.049745496
48	0x3a6de9a6	0.0009075649
49	0xbc492142	-0.012275996
50	0x3bcb18ab	0.006198009
51	0x3e8b9574	0.2726246
52	0xbda7e82c	-0.0819858
53	0xbdccea60	-0.10005641
54	0x3e98a038	0.29809737
55	0x3edd897c	0.43268955
56	0x3e1fdc3d	0.15611358
57	0xbbc4b29b	-0.0060027367
58	0x3db4e46d	0.08832631
59	0xbd7971a7	-0.060899403
60	0x3e6cef0a	0.23138061
61	0xbdd7f316	-0.10544412
62	0x3e414dd5	0.18877347
63	0x3ea8c6c4	0.32964146
64	0xbe84a620	-0.25907993
65	0xbda8f5c3	-0.0825
66	0xbca44290	-0.02005127
67	0xbdd7c0a5	-0.10534791
68	0x3e5ed501	0.21760942
69	0xbdf15395	-0.1178352
70	0xbd180dc1	-0.03712249
71	0x3eb63030	0.3558364
72	0x3e3deb02	0.1854668
73	0xbe4f049b	-0.202166
74	0xbbb63faf	-0.005561791
75	0x3dadf257	0.08493488
76	0xbe39910c	-0.18121737
77	0x3e93b8e0	0.28851986
78	0x3e9d88db	0.30768475
79	0x3e3c8d84	0.18413359
80	0xbeb4861f	-0.35258576
81	0xbdcf8a7a	-0.10133834
82	0xbdd5ae3e	-0.10433625
83	0xbd47d40b	-0.048786204
84	0x3c640619	0.013917469
85	0x3d8b4053	0.06799378
86	0xbc378199	-0.011200332
87	0x3e0f8c45	0.14018352
88	0xbdea2818	-0.114334285
89	0x3dbf9c4e	0.09355985
90	0x3e8330c5	0.25623146
91	0xbc0e0364	-0.008667801
92	0xbdbac2f7	-0.09119218
93	0x3d071eb9	0.032988284
94	0xbde16c8c	-0.11007032
95	0x3dcc6f9d	0.09982226
96	0x3d1632e9	0.036669645
97	0x3dc24805	0.09486393
98	0xbe84f152	-0.25965363
99	0xbd3c7acf	-0.046015557
100	0xbd3de017	-0.046356287
101	0x3db95006	0.090484664
102	0xbdf139e5	-0.11778621
103	0xbdcc045b	-0.09961768
104	0xbe65b641	-0.22432806
105	0x3b8a066c	0.0042121913
106	0x3e866763	0.26250753
107	0x3eefbe61	0.46824935
108	0x3de5dfc2	0.11224319
109	0x3c0a09ee	0.008425219
110	0x3e0b88d7	0.13626419
111	0x3dc2a0a4	0.09503296
112	0x3f0645eb	0.52450436
113	0xbdac2a24	-0.08406475
114	0xbdd7da5e	-0.10539697
115	0xbd21a4ed	-0.039463926
116	0x3e37ee4a	0.17961994
117	0xbea671b2	-0.32508618
118	0xbe12b942	-0.14328483
119	0xbe6a29e5	-0.22867544
120	0xbe8607b2	-0.26177746
121	0x3e1fef89	0.15618719
122	0xbd55379f	-0.052054998
123	0x3db516f5	0.08842269
124	0xbdfe8ea3	-0.124295495
125	0x3e4dba73	0.20090656
126	0xbe152cef	-0.14567922
127	0x3e84f93b	0.25971398
128	0xbd43d72a	-0.04781262
129	0xbbfaa2c1	-0.0076487963
130	0xbe598ae5	-0.2124439
131	0xbd871fe7	-0.06597882
132	0x3d353ce8	0.044247538
133	0x3d9565da	0.07294817
134	0x3ce6dee9	0.028182464
135	0x3e76fefc	0.24120706
136	0xbe3bcd12	-0.18339947
137	0xbd554e47	-0.052076604
138	0xbd8b0046	-0.067871615
139	0xbdde8c6f	-0.10866629
140	0x3e54208c	0.2071554
141	0xbeaed736	-0.34148568
142	0xbda3d92b	-0.08000406
143	0xbd39146c	-0.04518549
144	0xbe1aeb28	-0.15128767
145	0xbc69c7a4	-0.014268789
146	0xbea04a14	-0.31306517
147	0xbc036c99	-0.008021497
148	0xbee56811	-0.4480596
149	0x3dedcfcc	0.116119
150	0x3dc491d0	0.09598124
151	0xbdab02cd	-0.083501436
152	0x3e3e834a	0.1860477
153	0xbcc283a9	-0.023744421
154	0xbe3b2e54	-0.18279392
155	0xbc0590cc	-0.008152198
156	0x3eede08f	0.46460387
157	0xbd372a16	-0.04471787
158	0xbda07d09	-0.078363486
159	0x3e41e1d7	0.18933807
160	0x3eb23357	0.34804794
161	0xbe79b9eb	-0.24387328
162	0xbe416cb1	-0.18889119
163	0xbdfdde89	-0.12395961
164	0xbd37ea7a	-0.04490135
165	0x3e5357ee	0.20639011
166	0xbe3461d7	-0.17615448
167	0x3d2b6fd4	0.041854694
168	0x3ca2053b	0.019777885
169	0x3e5a5228	0.21320403
170	0xbcc987f6	-0.024600964
171	0xbd4af4ad	-0.049549747
172	0xbe87c833	-0.26519927
173	0xbe426fc7	-0.18987952
174	0x3c5bdced	0.013419372
175	0x3be170fc	0.006879924
176	0xbdf4a6ea	-0.11945899
177	0x3e2ca1b4	0.1685856
178	0x3e141099	0.14459457
179	0xbd8c0e33	-0.06838646
180	0x3e5f9bd3	0.21836786
181	0xbdd75123	-0.105135225
182	0x3e48d71b	0.19613306
183	0xbe174d7d	-0.14775653
184	0x3dff37db	0.124618255
185	0x3eaf86b7	0.34282467
186	0x3edbec51	0.42953733
187	0x3b62fcbb	0.0034635502
188	0xbe2f08dd	-0.17093225
189	0x3bfd2d2d	0.0077263326
190	0xbe13b267	-0.14423524
191	0x3e8df9ef	0.27729747

sequential/dense_1/MatMul f4 [64, 64]
0	0x3d9a55b5	0.075358786
1	0x3cb60294	0.022218026
2	0xbd8b426c	-0.06799778
3	0xbea581a0	-0.3232546
4	0x3cb2bf49	0.021819727
5	0x3de70c3d	0.11281631
6	0xbe8b60e9	-0.27222374
7	0xbc400e88	-0.0117222145
8	0xbebd1768	-0.3693192
9	0xbe271136	-0.16315159
10	0xbdb7555c	-0.08951828
11	0xbd09b158	-0.033616394
12	0x3e3be2b0	0.18348193
13	0x3d08a040	0.03335595
14	0xbe2b625e	-0.16736743
15	0x3e319d5c	0.17345184
16	0x3dbe0e18	0.09280032
17	0x3e8ec36e	0.27883476
18	0xbe2e2dd9	-0.17009677
19	0xbe0afcca	-0.13572994
20	0x3ec5c6a2	0.38628107
21	0xbe780c8d	-0.24223538
22	0x3d236a53	0.03989632
23	0xbdab976a	-0.08378489
24	0x3db32f6b	0.08749279
25	0x3ceb538f	0.028726367
26	0xbdce9b9a	-0.100882724
27	0x3d10529d	0.035235036
28	0xbcfc62bb	-0.030808797
29	0x3eff2123	0.4982997
30	0xbbef503b	-0.0073032654
31	0xbd3401df	-0.043947097
32	0xbd414479	-0.04718444
33	0xbe610165	-0.21973188
34	0xbe69332f	-0.22773431
35	0x3ee98716	0.45610875
36	0xbd98853c	-0.074472874
37	0xbda31447	-0.07962852
38	0x3dac9085	0.084260024
39	0xbb947384	-0.004530372
40	0xbdf1e67e	-0.11811541
41	0xbe3888ac	-0.18020886
42	0x3e1a8fc3	0.15093903
43	0x3d9a1196	0.075228855
44	0x3e56901c	0.20953411
45	0xbdabd2a6	-0.083897874
46	0x3d4d2a7b	0.05008934
47	0x3e295a59	0.16538371
48	0x3df26ded	0.11837373
49	0x3de7faab	0.11327108
50	0x3e4f889e	0.20266959
51	0xbae79a4d	-0.0017669887
52	0x3e216e7f	0.15764807
53	0xbe353f11	-0.17699839
54	0xbe14fed4	-0.14550334
55	0xbda5de07	-0.08098989
56	0xbe4a2dff	-0.19744109
57	0xbdf97ff3	-0.121826075
58	0xbe8b9a38	-0.27266097
59	0xbdc0d48b	-0.09415539
60	0xbdf1a216	-0.117984936
61	0xbe8b5def	-0.27220103
62	0x3ca19ce4	0.019728132
63	0x3e6440ff	0.22290419
64	0xbe129928	-0.14316237
65	0x3d1d76ad	0.038443256
66	0x3e8a278b	0.26983294
67	0xbc94d01b	-0.018165639
68	0x3d7c81aa	0.061647095
69	0x3e1c6fbc	0.15276998
70	0x3d3a4d85	0.045484085
71	0x3d902abc	0.07039401
72	0xbe006b27	-0.12540875
73	0xbdb428e9	-0.087968655
74	0x3d4493e9	0.04799262
75	0x3cfa08ba	0.03052174
76	0x3da2fb88	0.07958132
77	0xbd50f381	-0.051013473
78	0xbde7fb6c	-0.11327252
79	0xbef8fbef	-0.4862971
80	0xbe439204	-0.1909867
81	0xbe0f57c1	-0.13998319
82	0xbec9eb59	-0.3943737
83	0xbc2f09ed	-0.010683519
84	0x3db86998	0.090045154
85	0x3d84463f	0.06458711
86	0xbeaf0c37	-0.34189007
87	0x3dc350d1	0.09536899
88	0x3e4068b4	0.18789941
89	0xbde6dc29	-0.11272461
90	0xbdfe3577	-0.12412541
91	0x3e5c6222	0.2152181
92	0x3e83fab6	0.25777215
93	0xbe70beab	-0.23510234
94	0xbe281fce	-0.16418383
95	0xbe2fb726	-0.1715971
96	0xba439c41	-0.00074619433
97	0x3e385bdf	0.18003796
98	0x3d5c87ca	0.053840436
99	0xbb640068	-0.0034790281
100	0xbe1d9630	-0.15389323
101	0x3e8731da	0.2640522
102	0x3da7d6fb	0.08195301
103	0xbd235a68	-0.03988114
104	0x3e2f4d5a	0.17119351
105	0xbc91cde9	-0.01779838
106	0xbd9e1b7f	-0.07720088
107	0x3e984806	0.2974245
108	0x3e9148e3	0.2837592
109	0x3da9a1f3	0.082828425
110	0x3da0c5d5	0.078502335
111	0x3c9bb9f7	0.019009573
112	0xbd61e3b4	-0.055148795
113	0x3e9b1f74	0.30297434
114	0xbd9b07a5	-0.075698175
115	0x3d2006c1	0.03906894
116	0xbe47c86f	-0.19510053
117	0xbd12c3b7	-0.03583118
118	0xbeb265e1	-0.34843352
119	0xbe02a693	-0.12758856
120	0x3eb6373f	0.35589024
121	0xbe90f8d3	-0.28314838
122	0xbd493cdb	-0.049130302
123	0x3c1ef357	0.009701571
124	0xbda775e8	-0.08176786
125	0xbe969872	-0.29413182
126	0x3d48138a	0.04884676
127	0xbdf1c633	-0.118053816
128	0xbdc44ee8	-0.09585363
129	0x3dd0c00b	0.10192879
130	0x3db14353	0.08655419
131	0xbc8f96cd	-0.017527962
132	0x3e88115b	0.2657574
133	0xbe20a836	-0.15689167
134	0x3da77dea	0.08178313
135	0x3e53c3b3	0.20680122
136	0x3d879cf3	0.066217326
137	0x3db68dd5	0.08913771
138	0xbdd0b1e3	-0.10190179
139	0x3e1e3b01	0.15452196
140	0x3ea7f5ce	0.32804722
141	0x3d8e1687	0.069378905
142	0xbea8eec2	-0.32994658
143	0xbde7fe1d	-0.11327765
144	0xbc9a9aeb	-0.018872699
145	0x3cb5714b	0.022148749
146	0xbd69b8d3	-0.057061028
147	0x3d22c74f	0.039740857
148	0x3cc95cd7	0.024580402
149	0xbca603b5	-0.02026544
150	0xbe9e796d	-0.30952016
151	0x3e406c77	0.18791376
152	0xbe022a73	-0.12711506
153	0x3d35d595	0.04439314
154	0xbe04d793	-0.1297286
155	0xbd264358	-0.040591568
156	0xbe5ef562	-0.21773294
157	0x3d205007	0.03913882
158	0xbe8879aa	-0.26655322
159	0xbdccc5ea	-0.099986866
160	0x3e68bf1b	0.22729151
161	0x3c95ab58	0.01827018
162	0xbeb97d77	-0.36228535
163	0xbc6b02f0	-0.014343962
164	0x3df8845b	0.1213462
165	0x3d019c94	0.031643465
166	0xbe2b8aa7	-0.1675211
167	0x3d9552d7	0.07291191
168	0xbe2cde78	-0.1688174
169	0x3e41de13	0.18932371
170	0xbe95951d	-0.29215327
171	0x3e88c98b	0.26716265
172	0xbd2925e2	-0.041295893
173	0x3e65d192	0.22443226
174	0x3e057d68	0.1303612
175	0x3e968eb0	0.29405737
176	0x3dedd438	0.11612743
177	0xbdcd92c0	-0.10037756
178	0xbe171b45	-0.14756496
179	0x3db6c613	0.089244984
180	0xbe334e90	-0.17510438
181	0xbca69ffc	-0.020339958
182	0x3e9afa10	0.30268908
183	0x3e41681b	0.1888737
184	0xbc902536	-0.017595869
185	0x3eafef44	0.34362233
186	0xbd98a9e8	-0.07454282
187	0xbc93c47e	-0.01803803
188	0x3e105a6c	0.14096993
189	0x3e167f83	0.1469708
190	0x3e2232cd	0.15839691
191	0x3ef6f149	0.4823096
192	0x3ed7f81e	0.42181486
193	0x3d68c40e	0.056827597
194	0x3dfc1e85	0.12310509
195	0x3dc8a369	0.09796793
196	0x3e3f0656	0.1865476
197	0xbea377e0	-0.31927395
198	0x3e3c9ef6	0.18420014
199	0x3dbc47d4	0.09193388
200	0xbe73d767	-0.23812638
201	0x3ca3f53e	0.020014402
202	0xbe18c847	-0.1492015
203	0x3cdb9c5f	0.026807962
204	0xbe32450f	-0.17409156
205	0x3e036b7f	0.12833975
206	0x3e1af15e	0.15131137
207	0xbdbe3a89	-0.092885084
208	0x3e9344e4	0.28763497
209	0xbdb7e73f	-0.089796536
210	0x3e76009e	0.24023673
211	0x3d119d81	0.035550598
212	0x3e34ac65	0.17643888
213	0x3e097255	0.1342252
214	0x3e6323b5	0.2218159
215	0xbdf57fea	-0.11987288
216	0x3e299f29	0.16564621
217	0x3e669018	0.22515905
218	0xbdf93e23	-0.12170055
219	0xbe22e3be	-0.15907189
220	0x3e42d7e3	0.19027667
221	0xbd9ceb7e	-0.07662104
222	0xbdeb8c6b	-0.11501392
223	0x3e807f93	0.2509733
224	0x3eb58bd3	0.3545824
225	0x3dfb2790	0.12263405
226	0xbe3f82c6	-0.1870223
227	0xbc5b05e1	-0.013368101
228	0xbe32b329	-0.17451157
229	0x3bb6bbc1	0.005576581
230	0x3e73a54b	0.23793523
231	0xbdd4bbe6	-0.10387401
232	0x3e0eeb95	0.13957055
233	0xbe517288	-0.20453846
234	0x3df2056f	0.118174426
235	0xbdb422ee	-0.08795725
236	0x3ead0284	0.33790982
237	0x3e1538bc	0.14572424
238	0x3d2d61ac	0.042329475
239	0x3e0dcdd6	0.13848051
240	0x3e707224	0.23481041
241	0xbe4fb53a	-0.20283976
242	0xbe672e84	-0.22576338
243	0xbe074e58	-0.1321348
244	0x3cfb2aa4	0.030659981
245	0x3ea5f316	0.32412022
246	0xbe053c59	-0.13011302
247	0x3d0f3e37	0.034971442
248	0x3e01e530	0.12685084
249	0x3d04c738	0.032416552
250	0xbe2939b9	-0.16525926
251	0x3de400ce	0.11132966
252	0x3e914874	0.2837559
253	0xbe04916e	-0.12946102
254	0x3ca02f79	0.019553887
255	0x3d0b90ae	0.034073524

sequential/dense_2/MatMul f4 [2, 64]
0	0x3e4d7330	0.20063472
1	0xbe0d0012	-0.13769558
2	0xbe6dd812	-0.23226956
3	0xbe8b04e7	-0.27152178
4	0x3e8517ee	0.2599482
5	0x3d7f3938	0.062310427
6	0x3e34ca76	0.17655358
7	0x3c3a9480	0.011387944
8	0x3e0bf632	0.13668135
9	0x3e8a2a10	0.26985216
10	0xbe07b91d	-0.13254209
11	0x3e57a8ac	0.21060437
12	0x3dc5d8c8	0.09660488
13	0xbdb1b8f8	-0.08677858
14	0x3dfcf1d4	0.123508126
15	0xbdfe5a78	-0.12419599
16	0xbe7df1ce	-0.24799272
17	0x3e49f29c	0.19721454
18	0x3b735e00	0.0037134886
19	0x3e205be2	0.1566005
20	0xbcffd510	-0.031229526
21	0x3ddf5b68	0.10906106
22	0xbe0ad6e4	-0.13558537
23	0xbcb274b0	-0.021784157
24	0xbe5d51e7	-0.21613275
25	0xbe2b515a	-0.16730252
26	0x3dcf3634	0.1011776
27	0xbdc6eaa0	-0.0971272
28	0x3bed21c0	0.0072366893
29	0x3d71d3a8	0.05903974
30	0x3ce353a0	0.027749836
31	0x3cd27be0	0.025693834
32	0xbe92f276	-0.28700608
33	0x3d4a6658	0.04941401
34	0xbe62a2f2	-0.22132471
35	0xbde247f2	-0.11048879
36	0xbe5292fd	-0.20563884
37	0x3e165c08	0.14683545
38	0x3d76b400	0.060230255
39	0xbce7e700	-0.028308392
40	0xbb38d700	-0.0028204322
41	0x3da01ebc	0.07818362
42	0xbd15fa28	-0.03661552
43	0x3e4135a8	0.18868124
44	0x3e7cdb20	0.24692965
45	0x3e9a55d6	0.30143613
46	0xbd99573c	-0.07487342
47	0xbe86ebe1	-0.26351836
48	0x3e69e388	0.22840703
49	0xbdaa84da	-0.08326121
50	0x3e17409e	0.14770743
51	0x3e89c762	0.2690993
52	0x3e8ca59c	0.274701
53	0x3d71a490	0.05899483
54	0xbe33e265	-0.17566831
55	0x3e336e02	0.17522433
56	0xbe94afb5	-0.29040304
57	0x3e736a90	0.23771119
58	0xbdc93554	-0.09824625
59	0xbe4787f1	-0.19485451
60	0x3e932450	0.28738642
61	0x3b8d8340	0.0043186247
62	0xbd354db0	-0.04426354
63	0xbdc5c8ea	-0.09657462
64	0x3e861128	0.26184964
65	0xbc1c0e00	-0.009524822
66	0x3d6d44a8	0.057926804
67	0x3d6b6158	0.05746588
68	0x3df826dc	0.12116787
69	0x3e604a20	0.21903276
70	0x3dac8ee0	0.08425689
71	0x3e82e05e	0.25561804
72	0xbd250318	-0.040286154
73	0xbe83b982	-0.2572747
74	0xbe6539e9	-0.22385372
75	0x3dfb0670	0.12257087
76	0xbdf9162e	-0.121624336
77	0x3e81f82a	0.25384647
78	0xbe8ef124	-0.2791835
79	0xbe37280c	-0.1788637
80	0xbd1dbf70	-0.038512647
81	0xbe6a988e	-0.22909757
82	0xbe27db5c	-0.16392273
83	0x3e5e1460	0.2168746
84	0xbe9249f6	-0.28572053
85	0xbe225e4c	-0.15856284
86	0x3d887434	0.06662789
87	0x3e653ef0	0.2238729
88	0x3db5e650	0.08881819
89	0xbc2414c0	-0.010014713
90	0x3e410e54	0.18853122
91	0x3e6ef820	0.2333684
92	0xbe98293b	-0.29718956
93	0xbe833d12	-0.2563253
94	0xbe946482	-0.2898293
95	0xbcebd5c0	-0.028788447
96	0xbd39fc58	-0.04540667
97	0x3e951b64	0.2912246
98	0x3dca8338	0.09888309
99	0xbe4fc808	-0.2029115
100	0xbe29ad67	-0.16570054
101	0x3cdac980	0.02670741
102	0x3e7e6590	0.2484343
103	0x3e0a450a	0.13502899
104	0xbe752094	-0.23938209
105	0x3dc822ec	0.09772286
106	0x3d04a180	0.03238058
107	0x3db92e7c	0.09042069
108	0xbe2b8241	-0.16748907
109	0x3e1e1952	0.15439346
110	0x3e5021f4	0.20325452
111	0xbccc82c0	-0.02496469
112	0xbdbfa474	-0.09357539
113	0x3e03e4e2	0.1288028
114	0x3e7d33c8	0.24726784
115	0x3e291ec4	0.16515642
116	0x3e1dc0ec	0.15405625
117	0xbe1d77f4	-0.1537779
118	0xbe8b2fd2	-0.27184922
119	0x3e2075a4	0.15669876
120	0xbe07e8c5	-0.13272388
121	0x3e76d0b8	0.24103057
122	0x3e83160e	0.25602764
123	0xbcee6be0	-0.029104173
124	0x3e4ecbc8	0.20194924
125	0xbe5b6d1c	-0.2142834
126	0x3ddcdfd0	0.10784876
127	0x3e91dcda	0.2848881
